apps/FacialDetect/src/model/model_npu/face_detect_converted.tflite (tflite, 203744 bytes, 2 tensors)

NeutronMicrocode u1 [7088]
00000000: 6e4d 4364 1b3f 931c 561b 0000 0000 0000
00000010: 561b 0000 1000 0000 b01b 0000 54fb 0200
00000020: 0100 0000 00e0 0100 0000 0000 0100 0000
00000030: 0300 0000 3a00 0000 0118 0000 0000 0000
00000040: 0305 0600 0101 0100 0207 0000 0000 0000
00000050: 0000 2000 0000 0000 0000 1000 0000 0100
00000060: 0000 4000 0000 5000 0000 0800 0000 0800
00000070: 0000 0100 0000 8000 0000 a000 0000 0300
00000080: 0000 0300 0000 0300 0000 0200 0000 0200
00000090: 0000 0000 0000 0000 0000 0100 0000 0100
000000a0: 0000 0100 0000 0100 0000 1001 0f07 0000
000000b0: 0000 0000 0000 0100 0000 0100 0000 80ff
000000c0: ffff 3080 0000 0000 0000 0000 0000 0000
000000d0: 0000 0000 0000 0507 0305 0606 0101 0100
000000e0: 0219 0040 0100 0000 0000 8001 0000 4001
000000f0: 0000 7001 0000 0100 0000 4000 0000 5000
110 77 67 100 27 63 147 28
86 27 0 0 0 0 0 0
86 27 0 0 16 0 0 0
176 27 0 0 84 251 2 0
1 0 0 0 0 224 1 0
0 0 0 0 1 0 0 0
3 0 0 0 58 0 0 0
1 24 0 0 0 0 0 0
3 5 6 0 1 1 1 0
2 7 0 0 0 0 0 0
0 0 32 0 0 0 0 0
0 0 16 0 0 0 1 0
0 0 64 0 0 0 80 0
0 0 8 0 0 0 8 0
0 0 1 0 0 0 128 0
0 0 160 0 0 0 3 0
0 0 3 0 0 0 3 0
0 0 2 0 0 0 2 0
0 0 0 0 0 0 0 0
0 0 1 0 0 0 1 0
0 0 1 0 0 0 1 0
0 0 16 1 15 7 0 0
0 0 0 0 0 0 1 0
0 0 1 0 0 0 128 255
255 255 48 128 0 0 0 0
0 0 0 0 0 0 0 0
0 0 0 0 0 0 5 7
3 5 6 6 1 1 1 0
2 25 0 64 1 0 0 0
0 0 128 1 0 0 64 1
0 0 112 1 0 0 1 0
0 0 64 0 0 0 80 0

NeutronWeights u1 [195412]
00000000: 4426 322b 2422 00d6 0926 3e27 4823 00d6
00000010: c64a 455b fa57 558b 9d52 4757 554f dc9b
00000020: d706 e2f0 f84a c0c7 2a16 bf56 0000 0000
00000030: e4eb f355 173b 0b1d b6b3 b7ab 0000 0000
00000040: 012c 0d1d e86c ae9e 500d a47c 0000 0000
00000050: e6e7 f675 5c61 0c43 c5a6 cac7 0000 0000
00000060: 7d68 4c7f e94a cdc0 32f5 d844 0000 0000
00000070: d7ff 0926 4b1a f222 e4d1 3add 0000 0000
00000080: f2e9 f5f3 5bdf cd37 0b9f 46f6 0000 0000
00000090: 5318 2a7f 5a22 f91d b681 efef 0000 0000
000000a0: 1a15 ef15 7fe4 a846 0481 5bed 0000 0000
000000b0: 29fa 5443 7f2a 0324 b68a feda 0000 0000
000000c0: 6e53 0f3f 4af6 cb28 f0cb 32e8 0000 0000
000000d0: ff05 d81f 320f ff07 e521 fbee 0000 0000
000000e0: 1300 0000 fc00 0000 c400 0000 0000 0000
000000f0: 3e00 0000 0f00 0000 2e00 0000 0000 0000
68 38 50 43 36 34 0 214
9 38 62 39 72 35 0 214
198 74 69 91 250 87 85 139
157 82 71 87 85 79 220 155
215 6 226 240 248 74 192 199
42 22 191 86 0 0 0 0
228 235 243 85 23 59 11 29
182 179 183 171 0 0 0 0
1 44 13 29 232 108 174 158
80 13 164 124 0 0 0 0
230 231 246 117 92 97 12 67
197 166 202 199 0 0 0 0
125 104 76 127 233 74 205 192
50 245 216 68 0 0 0 0
215 255 9 38 75 26 242 34
228 209 58 221 0 0 0 0
242 233 245 243 91 223 205 55
11 159 70 246 0 0 0 0
83 24 42 127 90 34 249 29
182 129 239 239 0 0 0 0
26 21 239 21 127 228 168 70
4 129 91 237 0 0 0 0
41 250 84 67 127 42 3 36
182 138 254 218 0 0 0 0
110 83 15 63 74 246 203 40
240 203 50 232 0 0 0 0
255 5 216 31 50 15 255 7
229 33 251 238 0 0 0 0
19 0 0 0 252 0 0 0
196 0 0 0 0 0 0 0
62 0 0 0 15 0 0 0
46 0 0 0 0 0 0 0
